UNet2DConditionModel(
  (conv_in): Conv2d(4, 320, kernel_size=(3, 3), stride=(1, 1), padding=(1, 1))
  (time_proj): Timesteps()
  (time_embedding): TimestepEmbedding(
    (linear_1): Linear(in_features=320, out_features=1280, bias=True)
    (act): SiLU()
    (linear_2): Linear(in_features=1280, out_features=1280, bias=True)
  )
  (down_blocks): ModuleList(
    (0): CrossAttnDownBlock2D(
      (attentions): ModuleList(
        (0-1): 2 x Transformer2DModel(
          (norm): GroupNorm(32, 320, eps=1e-06, affine=True)
          (proj_in): lora.Conv2d(
            (base_layer): Conv2d(320, 320, kernel_size=(1, 1), stride=(1, 1))
            (lora_dropout): ModuleDict(
              (default_0): Identity()
            )
            (lora_A): ModuleDict(
              (default_0): Conv2d(320, 64, kernel_size=(1, 1), stride=(1, 1), bias=False)
            )
            (lora_B): ModuleDict(
              (default_0): Conv2d(64, 320, kernel_size=(1, 1), stride=(1, 1), bias=False)
            )
            (lora_embedding_A): ParameterDict()
            (lora_embedding_B): ParameterDict()
          )
          (transformer_blocks): ModuleList(
            (0): BasicTransformerBlock(
              (norm1): LayerNorm((320,), eps=1e-05, elementwise_affine=True)
              (attn1): Attention(
                (to_q): lora.Linear(
                  (base_layer): Linear(in_features=320, out_features=320, bias=False)
                  (lora_dropout): ModuleDict(
                    (default_0): Identity()
                  )
                  (lora_A): ModuleDict(
                    (default_0): Linear(in_features=320, out_features=64, bias=False)
                  )
                  (lora_B): ModuleDict(
                    (default_0): Linear(in_features=64, out_features=320, bias=False)
                  )
                  (lora_embedding_A): ParameterDict()
                  (lora_embedding_B): ParameterDict()
                )
                (to_k): lora.Linear(
                  (base_layer): Linear(in_features=320, out_features=320, bias=False)
                  (lora_dropout): ModuleDict(
                    (default_0): Identity()
                  )
                  (lora_A): ModuleDict(
                    (default_0): Linear(in_features=320, out_features=64, bias=False)
                  )
                  (lora_B): ModuleDict(
                    (default_0): Linear(in_features=64, out_features=320, bias=False)
                  )
                  (lora_embedding_A): ParameterDict()
                  (lora_embedding_B): ParameterDict()
                )
                (to_v): lora.Linear(
                  (base_layer): Linear(in_features=320, out_features=320, bias=False)
                  (lora_dropout): ModuleDict(
                    (default_0): Identity()
                  )
                  (lora_A): ModuleDict(
                    (default_0): Linear(in_features=320, out_features=64, bias=False)
                  )
                  (lora_B): ModuleDict(
                    (default_0): Linear(in_features=64, out_features=320, bias=False)
                  )
                  (lora_embedding_A): ParameterDict()
                  (lora_embedding_B): ParameterDict()
                )
                (to_out): ModuleList(
                  (0): lora.Linear(
                    (base_layer): Linear(in_features=320, out_features=320, bias=True)
                    (lora_dropout): ModuleDict(
                      (default_0): Identity()
                    )
                    (lora_A): ModuleDict(
                      (default_0): Linear(in_features=320, out_features=64, bias=False)
                    )
                    (lora_B): ModuleDict(
                      (default_0): Linear(in_features=64, out_features=320, bias=False)
                    )
                    (lora_embedding_A): ParameterDict()
                    (lora_embedding_B): ParameterDict()
                  )
                  (1): Dropout(p=0.0, inplace=False)
                )
              )
              (norm2): LayerNorm((320,), eps=1e-05, elementwise_affine=True)
              (attn2): Attention(
                (to_q): lora.Linear(
                  (base_layer): Linear(in_features=320, out_features=320, bias=False)
                  (lora_dropout): ModuleDict(
                    (default_0): Identity()
                  )
                  (lora_A): ModuleDict(
                    (default_0): Linear(in_features=320, out_features=64, bias=False)
                  )
                  (lora_B): ModuleDict(
                    (default_0): Linear(in_features=64, out_features=320, bias=False)
                  )
                  (lora_embedding_A): ParameterDict()
                  (lora_embedding_B): ParameterDict()
                )
                (to_k): lora.Linear(
                  (base_layer): Linear(in_features=768, out_features=320, bias=False)
                  (lora_dropout): ModuleDict(
                    (default_0): Identity()
                  )
                  (lora_A): ModuleDict(
                    (default_0): Linear(in_features=768, out_features=64, bias=False)
                  )
                  (lora_B): ModuleDict(
                    (default_0): Linear(in_features=64, out_features=320, bias=False)
                  )
                  (lora_embedding_A): ParameterDict()
                  (lora_embedding_B): ParameterDict()
                )
                (to_v): lora.Linear(
                  (base_layer): Linear(in_features=768, out_features=320, bias=False)
                  (lora_dropout): ModuleDict(
                    (default_0): Identity()
                  )
                  (lora_A): ModuleDict(
                    (default_0): Linear(in_features=768, out_features=64, bias=False)
                  )
                  (lora_B): ModuleDict(
                    (default_0): Linear(in_features=64, out_features=320, bias=False)
                  )
                  (lora_embedding_A): ParameterDict()
                  (lora_embedding_B): ParameterDict()
                )
                (to_out): ModuleList(
                  (0): lora.Linear(
                    (base_layer): Linear(in_features=320, out_features=320, bias=True)
                    (lora_dropout): ModuleDict(
                      (default_0): Identity()
                    )
                    (lora_A): ModuleDict(
                      (default_0): Linear(in_features=320, out_features=64, bias=False)
                    )
                    (lora_B): ModuleDict(
                      (default_0): Linear(in_features=64, out_features=320, bias=False)
                    )
                    (lora_embedding_A): ParameterDict()
                    (lora_embedding_B): ParameterDict()
                  )
                  (1): Dropout(p=0.0, inplace=False)
                )
              )
              (norm3): LayerNorm((320,), eps=1e-05, elementwise_affine=True)
              (ff): FeedForward(
                (net): ModuleList(
                  (0): GEGLU(
                    (proj): lora.Linear(
                      (base_layer): Linear(in_features=320, out_features=2560, bias=True)
                      (lora_dropout): ModuleDict(
                        (default_0): Identity()
                      )
                      (lora_A): ModuleDict(
                        (default_0): Linear(in_features=320, out_features=64, bias=False)
                      )
                      (lora_B): ModuleDict(
                        (default_0): Linear(in_features=64, out_features=2560, bias=False)
                      )
                      (lora_embedding_A): ParameterDict()
                      (lora_embedding_B): ParameterDict()
                    )
                  )
                  (1): Dropout(p=0.0, inplace=False)
                  (2): lora.Linear(
                    (base_layer): Linear(in_features=1280, out_features=320, bias=True)
                    (lora_dropout): ModuleDict(
                      (default_0): Identity()
                    )
                    (lora_A): ModuleDict(
                      (default_0): Linear(in_features=1280, out_features=64, bias=False)
                    )
                    (lora_B): ModuleDict(
                      (default_0): Linear(in_features=64, out_features=320, bias=False)
                    )
                    (lora_embedding_A): ParameterDict()
                    (lora_embedding_B): ParameterDict()
                  )
                )
              )
            )
          )
          (proj_out): lora.Conv2d(
            (base_layer): Conv2d(320, 320, kernel_size=(1, 1), stride=(1, 1))
            (lora_dropout): ModuleDict(
              (default_0): Identity()
            )
            (lora_A): ModuleDict(
              (default_0): Conv2d(320, 64, kernel_size=(1, 1), stride=(1, 1), bias=False)
            )
            (lora_B): ModuleDict(
              (default_0): Conv2d(64, 320, kernel_size=(1, 1), stride=(1, 1), bias=False)
            )
            (lora_embedding_A): ParameterDict()
            (lora_embedding_B): ParameterDict()
          )
        )
      )
      (resnets): ModuleList(
        (0-1): 2 x ResnetBlock2D(
          (norm1): GroupNorm(32, 320, eps=1e-05, affine=True)
          (conv1): lora.Conv2d(
            (base_layer): Conv2d(320, 320, kernel_size=(3, 3), stride=(1, 1), padding=(1, 1))
            (lora_dropout): ModuleDict(
              (default_0): Identity()
            )
            (lora_A): ModuleDict(
              (default_0): Conv2d(320, 64, kernel_size=(3, 3), stride=(1, 1), padding=(1, 1), bias=False)
            )
            (lora_B): ModuleDict(
              (default_0): Conv2d(64, 320, kernel_size=(1, 1), stride=(1, 1), bias=False)
            )
            (lora_embedding_A): ParameterDict()
            (lora_embedding_B): ParameterDict()
          )
          (time_emb_proj): lora.Linear(
            (base_layer): Linear(in_features=1280, out_features=320, bias=True)
            (lora_dropout): ModuleDict(
              (default_0): Identity()
            )
            (lora_A): ModuleDict(
              (default_0): Linear(in_features=1280, out_features=64, bias=False)
            )
            (lora_B): ModuleDict(
              (default_0): Linear(in_features=64, out_features=320, bias=False)
            )
            (lora_embedding_A): ParameterDict()
            (lora_embedding_B): ParameterDict()
          )
          (norm2): GroupNorm(32, 320, eps=1e-05, affine=True)
          (dropout): Dropout(p=0.0, inplace=False)
          (conv2): lora.Conv2d(
            (base_layer): Conv2d(320, 320, kernel_size=(3, 3), stride=(1, 1), padding=(1, 1))
            (lora_dropout): ModuleDict(
              (default_0): Identity()
            )
            (lora_A): ModuleDict(
              (default_0): Conv2d(320, 64, kernel_size=(3, 3), stride=(1, 1), padding=(1, 1), bias=False)
            )
            (lora_B): ModuleDict(
              (default_0): Conv2d(64, 320, kernel_size=(1, 1), stride=(1, 1), bias=False)
            )
            (lora_embedding_A): ParameterDict()
            (lora_embedding_B): ParameterDict()
          )
          (nonlinearity): SiLU()
        )
      )
      (downsamplers): ModuleList(
        (0): Downsample2D(
          (conv): lora.Conv2d(
            (base_layer): Conv2d(320, 320, kernel_size=(3, 3), stride=(2, 2), padding=(1, 1))
            (lora_dropout): ModuleDict(
              (default_0): Identity()
            )
            (lora_A): ModuleDict(
              (default_0): Conv2d(320, 64, kernel_size=(3, 3), stride=(2, 2), padding=(1, 1), bias=False)
            )
            (lora_B): ModuleDict(
              (default_0): Conv2d(64, 320, kernel_size=(1, 1), stride=(1, 1), bias=False)
            )
            (lora_embedding_A): ParameterDict()
            (lora_embedding_B): ParameterDict()
          )
        )
      )
    )
    (1): CrossAttnDownBlock2D(
      (attentions): ModuleList(
        (0-1): 2 x Transformer2DModel(
          (norm): GroupNorm(32, 640, eps=1e-06, affine=True)
          (proj_in): lora.Conv2d(
            (base_layer): Conv2d(640, 640, kernel_size=(1, 1), stride=(1, 1))
            (lora_dropout): ModuleDict(
              (default_0): Identity()
            )
            (lora_A): ModuleDict(
              (default_0): Conv2d(640, 64, kernel_size=(1, 1), stride=(1, 1), bias=False)
            )
            (lora_B): ModuleDict(
              (default_0): Conv2d(64, 640, kernel_size=(1, 1), stride=(1, 1), bias=False)
            )
            (lora_embedding_A): ParameterDict()
            (lora_embedding_B): ParameterDict()
          )
          (transformer_blocks): ModuleList(
            (0): BasicTransformerBlock(
              (norm1): LayerNorm((640,), eps=1e-05, elementwise_affine=True)
              (attn1): Attention(
                (to_q): lora.Linear(
                  (base_layer): Linear(in_features=640, out_features=640, bias=False)
                  (lora_dropout): ModuleDict(
                    (default_0): Identity()
                  )
                  (lora_A): ModuleDict(
                    (default_0): Linear(in_features=640, out_features=64, bias=False)
                  )
                  (lora_B): ModuleDict(
                    (default_0): Linear(in_features=64, out_features=640, bias=False)
                  )
                  (lora_embedding_A): ParameterDict()
                  (lora_embedding_B): ParameterDict()
                )
                (to_k): lora.Linear(
                  (base_layer): Linear(in_features=640, out_features=640, bias=False)
                  (lora_dropout): ModuleDict(
                    (default_0): Identity()
                  )
                  (lora_A): ModuleDict(
                    (default_0): Linear(in_features=640, out_features=64, bias=False)
                  )
                  (lora_B): ModuleDict(
                    (default_0): Linear(in_features=64, out_features=640, bias=False)
                  )
                  (lora_embedding_A): ParameterDict()
                  (lora_embedding_B): ParameterDict()
                )
                (to_v): lora.Linear(
                  (base_layer): Linear(in_features=640, out_features=640, bias=False)
                  (lora_dropout): ModuleDict(
                    (default_0): Identity()
                  )
                  (lora_A): ModuleDict(
                    (default_0): Linear(in_features=640, out_features=64, bias=False)
                  )
                  (lora_B): ModuleDict(
                    (default_0): Linear(in_features=64, out_features=640, bias=False)
                  )
                  (lora_embedding_A): ParameterDict()
                  (lora_embedding_B): ParameterDict()
                )
                (to_out): ModuleList(
                  (0): lora.Linear(
                    (base_layer): Linear(in_features=640, out_features=640, bias=True)
                    (lora_dropout): ModuleDict(
                      (default_0): Identity()
                    )
                    (lora_A): ModuleDict(
                      (default_0): Linear(in_features=640, out_features=64, bias=False)
                    )
                    (lora_B): ModuleDict(
                      (default_0): Linear(in_features=64, out_features=640, bias=False)
                    )
                    (lora_embedding_A): ParameterDict()
                    (lora_embedding_B): ParameterDict()
                  )
                  (1): Dropout(p=0.0, inplace=False)
                )
              )
              (norm2): LayerNorm((640,), eps=1e-05, elementwise_affine=True)
              (attn2): Attention(
                (to_q): lora.Linear(
                  (base_layer): Linear(in_features=640, out_features=640, bias=False)
                  (lora_dropout): ModuleDict(
                    (default_0): Identity()
                  )
                  (lora_A): ModuleDict(
                    (default_0): Linear(in_features=640, out_features=64, bias=False)
                  )
                  (lora_B): ModuleDict(
                    (default_0): Linear(in_features=64, out_features=640, bias=False)
                  )
                  (lora_embedding_A): ParameterDict()
                  (lora_embedding_B): ParameterDict()
                )
                (to_k): lora.Linear(
                  (base_layer): Linear(in_features=768, out_features=640, bias=False)
                  (lora_dropout): ModuleDict(
                    (default_0): Identity()
                  )
                  (lora_A): ModuleDict(
                    (default_0): Linear(in_features=768, out_features=64, bias=False)
                  )
                  (lora_B): ModuleDict(
                    (default_0): Linear(in_features=64, out_features=640, bias=False)
                  )
                  (lora_embedding_A): ParameterDict()
                  (lora_embedding_B): ParameterDict()
                )
                (to_v): lora.Linear(
                  (base_layer): Linear(in_features=768, out_features=640, bias=False)
                  (lora_dropout): ModuleDict(
                    (default_0): Identity()
                  )
                  (lora_A): ModuleDict(
                    (default_0): Linear(in_features=768, out_features=64, bias=False)
                  )
                  (lora_B): ModuleDict(
                    (default_0): Linear(in_features=64, out_features=640, bias=False)
                  )
                  (lora_embedding_A): ParameterDict()
                  (lora_embedding_B): ParameterDict()
                )
                (to_out): ModuleList(
                  (0): lora.Linear(
                    (base_layer): Linear(in_features=640, out_features=640, bias=True)
                    (lora_dropout): ModuleDict(
                      (default_0): Identity()
                    )
                    (lora_A): ModuleDict(
                      (default_0): Linear(in_features=640, out_features=64, bias=False)
                    )
                    (lora_B): ModuleDict(
                      (default_0): Linear(in_features=64, out_features=640, bias=False)
                    )
                    (lora_embedding_A): ParameterDict()
                    (lora_embedding_B): ParameterDict()
                  )
                  (1): Dropout(p=0.0, inplace=False)
                )
              )
              (norm3): LayerNorm((640,), eps=1e-05, elementwise_affine=True)
              (ff): FeedForward(
                (net): ModuleList(
                  (0): GEGLU(
                    (proj): lora.Linear(
                      (base_layer): Linear(in_features=640, out_features=5120, bias=True)
                      (lora_dropout): ModuleDict(
                        (default_0): Identity()
                      )
                      (lora_A): ModuleDict(
                        (default_0): Linear(in_features=640, out_features=64, bias=False)
                      )
                      (lora_B): ModuleDict(
                        (default_0): Linear(in_features=64, out_features=5120, bias=False)
                      )
                      (lora_embedding_A): ParameterDict()
                      (lora_embedding_B): ParameterDict()
                    )
                  )
                  (1): Dropout(p=0.0, inplace=False)
                  (2): lora.Linear(
                    (base_layer): Linear(in_features=2560, out_features=640, bias=True)
                    (lora_dropout): ModuleDict(
                      (default_0): Identity()
                    )
                    (lora_A): ModuleDict(
                      (default_0): Linear(in_features=2560, out_features=64, bias=False)
                    )
                    (lora_B): ModuleDict(
                      (default_0): Linear(in_features=64, out_features=640, bias=False)
                    )
                    (lora_embedding_A): ParameterDict()
                    (lora_embedding_B): ParameterDict()
                  )
                )
              )
            )
          )
          (proj_out): lora.Conv2d(
            (base_layer): Conv2d(640, 640, kernel_size=(1, 1), stride=(1, 1))
            (lora_dropout): ModuleDict(
              (default_0): Identity()
            )
            (lora_A): ModuleDict(
              (default_0): Conv2d(640, 64, kernel_size=(1, 1), stride=(1, 1), bias=False)
            )
            (lora_B): ModuleDict(
              (default_0): Conv2d(64, 640, kernel_size=(1, 1), stride=(1, 1), bias=False)
            )
            (lora_embedding_A): ParameterDict()
            (lora_embedding_B): ParameterDict()
          )
        )
      )
      (resnets): ModuleList(
        (0): ResnetBlock2D(
          (norm1): GroupNorm(32, 320, eps=1e-05, affine=True)
          (conv1): lora.Conv2d(
            (base_layer): Conv2d(320, 640, kernel_size=(3, 3), stride=(1, 1), padding=(1, 1))
            (lora_dropout): ModuleDict(
              (default_0): Identity()
            )
            (lora_A): ModuleDict(
              (default_0): Conv2d(320, 64, kernel_size=(3, 3), stride=(1, 1), padding=(1, 1), bias=False)
            )
            (lora_B): ModuleDict(
              (default_0): Conv2d(64, 640, kernel_size=(1, 1), stride=(1, 1), bias=False)
            )
            (lora_embedding_A): ParameterDict()
            (lora_embedding_B): ParameterDict()
          )
          (time_emb_proj): lora.Linear(
            (base_layer): Linear(in_features=1280, out_features=640, bias=True)
            (lora_dropout): ModuleDict(
              (default_0): Identity()
            )
            (lora_A): ModuleDict(
              (default_0): Linear(in_features=1280, out_features=64, bias=False)
            )
            (lora_B): ModuleDict(
              (default_0): Linear(in_features=64, out_features=640, bias=False)
            )
            (lora_embedding_A): ParameterDict()
            (lora_embedding_B): ParameterDict()
          )
          (norm2): GroupNorm(32, 640, eps=1e-05, affine=True)
          (dropout): Dropout(p=0.0, inplace=False)
          (conv2): lora.Conv2d(
            (base_layer): Conv2d(640, 640, kernel_size=(3, 3), stride=(1, 1), padding=(1, 1))
            (lora_dropout): ModuleDict(
              (default_0): Identity()
            )
            (lora_A): ModuleDict(
              (default_0): Conv2d(640, 64, kernel_size=(3, 3), stride=(1, 1), padding=(1, 1), bias=False)
            )
            (lora_B): ModuleDict(
              (default_0): Conv2d(64, 640, kernel_size=(1, 1), stride=(1, 1), bias=False)
            )
            (lora_embedding_A): ParameterDict()
            (lora_embedding_B): ParameterDict()
          )
          (nonlinearity): SiLU()
          (conv_shortcut): lora.Conv2d(
            (base_layer): Conv2d(320, 640, kernel_size=(1, 1), stride=(1, 1))
            (lora_dropout): ModuleDict(
              (default_0): Identity()
            )
            (lora_A): ModuleDict(
              (default_0): Conv2d(320, 64, kernel_size=(1, 1), stride=(1, 1), bias=False)
            )
            (lora_B): ModuleDict(
              (default_0): Conv2d(64, 640, kernel_size=(1, 1), stride=(1, 1), bias=False)
            )
            (lora_embedding_A): ParameterDict()
            (lora_embedding_B): ParameterDict()
          )
        )
        (1): ResnetBlock2D(
          (norm1): GroupNorm(32, 640, eps=1e-05, affine=True)
          (conv1): lora.Conv2d(
            (base_layer): Conv2d(640, 640, kernel_size=(3, 3), stride=(1, 1), padding=(1, 1))
            (lora_dropout): ModuleDict(
              (default_0): Identity()
            )
            (lora_A): ModuleDict(
              (default_0): Conv2d(640, 64, kernel_size=(3, 3), stride=(1, 1), padding=(1, 1), bias=False)
            )
            (lora_B): ModuleDict(
              (default_0): Conv2d(64, 640, kernel_size=(1, 1), stride=(1, 1), bias=False)
            )
            (lora_embedding_A): ParameterDict()
            (lora_embedding_B): ParameterDict()
          )
          (time_emb_proj): lora.Linear(
            (base_layer): Linear(in_features=1280, out_features=640, bias=True)
            (lora_dropout): ModuleDict(
              (default_0): Identity()
            )
            (lora_A): ModuleDict(
              (default_0): Linear(in_features=1280, out_features=64, bias=False)
            )
            (lora_B): ModuleDict(
              (default_0): Linear(in_features=64, out_features=640, bias=False)
            )
            (lora_embedding_A): ParameterDict()
            (lora_embedding_B): ParameterDict()
          )
          (norm2): GroupNorm(32, 640, eps=1e-05, affine=True)
          (dropout): Dropout(p=0.0, inplace=False)
          (conv2): lora.Conv2d(
            (base_layer): Conv2d(640, 640, kernel_size=(3, 3), stride=(1, 1), padding=(1, 1))
            (lora_dropout): ModuleDict(
              (default_0): Identity()
            )
            (lora_A): ModuleDict(
              (default_0): Conv2d(640, 64, kernel_size=(3, 3), stride=(1, 1), padding=(1, 1), bias=False)
            )
            (lora_B): ModuleDict(
              (default_0): Conv2d(64, 640, kernel_size=(1, 1), stride=(1, 1), bias=False)
            )
            (lora_embedding_A): ParameterDict()
            (lora_embedding_B): ParameterDict()
          )
          (nonlinearity): SiLU()
        )
      )
      (downsamplers): ModuleList(
        (0): Downsample2D(
          (conv): lora.Conv2d(
            (base_layer): Conv2d(640, 640, kernel_size=(3, 3), stride=(2, 2), padding=(1, 1))
            (lora_dropout): ModuleDict(
              (default_0): Identity()
            )
            (lora_A): ModuleDict(
              (default_0): Conv2d(640, 64, kernel_size=(3, 3), stride=(2, 2), padding=(1, 1), bias=False)
            )
            (lora_B): ModuleDict(
              (default_0): Conv2d(64, 640, kernel_size=(1, 1), stride=(1, 1), bias=False)
            )
            (lora_embedding_A): ParameterDict()
            (lora_embedding_B): ParameterDict()
          )
        )
      )
    )
    (2): CrossAttnDownBlock2D(
      (attentions): ModuleList(
        (0-1): 2 x Transformer2DModel(
          (norm): GroupNorm(32, 1280, eps=1e-06, affine=True)
          (proj_in): lora.Conv2d(
            (base_layer): Conv2d(1280, 1280, kernel_size=(1, 1), stride=(1, 1))
            (lora_dropout): ModuleDict(
              (default_0): Identity()
            )
            (lora_A): ModuleDict(
              (default_0): Conv2d(1280, 64, kernel_size=(1, 1), stride=(1, 1), bias=False)
            )
            (lora_B): ModuleDict(
              (default_0): Conv2d(64, 1280, kernel_size=(1, 1), stride=(1, 1), bias=False)
            )
            (lora_embedding_A): ParameterDict()
            (lora_embedding_B): ParameterDict()
          )
          (transformer_blocks): ModuleList(
            (0): BasicTransformerBlock(
              (norm1): LayerNorm((1280,), eps=1e-05, elementwise_affine=True)
              (attn1): Attention(
                (to_q): lora.Linear(
                  (base_layer): Linear(in_features=1280, out_features=1280, bias=False)
                  (lora_dropout): ModuleDict(
                    (default_0): Identity()
                  )
                  (lora_A): ModuleDict(
                    (default_0): Linear(in_features=1280, out_features=64, bias=False)
                  )
                  (lora_B): ModuleDict(
                    (default_0): Linear(in_features=64, out_features=1280, bias=False)
                  )
                  (lora_embedding_A): ParameterDict()
                  (lora_embedding_B): ParameterDict()
                )
                (to_k): lora.Linear(
                  (base_layer): Linear(in_features=1280, out_features=1280, bias=False)
                  (lora_dropout): ModuleDict(
                    (default_0): Identity()
                  )
                  (lora_A): ModuleDict(
                    (default_0): Linear(in_features=1280, out_features=64, bias=False)
                  )
                  (lora_B): ModuleDict(
                    (default_0): Linear(in_features=64, out_features=1280, bias=False)
                  )
                  (lora_embedding_A): ParameterDict()
                  (lora_embedding_B): ParameterDict()
                )
                (to_v): lora.Linear(
                  (base_layer): Linear(in_features=1280, out_features=1280, bias=False)
                  (lora_dropout): ModuleDict(
                    (default_0): Identity()
                  )
                  (lora_A): ModuleDict(
                    (default_0): Linear(in_features=1280, out_features=64, bias=False)
                  )
                  (lora_B): ModuleDict(
                    (default_0): Linear(in_features=64, out_features=1280, bias=False)
                  )
                  (lora_embedding_A): ParameterDict()
                  (lora_embedding_B): ParameterDict()
                )
                (to_out): ModuleList(
                  (0): lora.Linear(
                    (base_layer): Linear(in_features=1280, out_features=1280, bias=True)
                    (lora_dropout): ModuleDict(
                      (default_0): Identity()
                    )
                    (lora_A): ModuleDict(
                      (default_0): Linear(in_features=1280, out_features=64, bias=False)
                    )
                    (lora_B): ModuleDict(
                      (default_0): Linear(in_features=64, out_features=1280, bias=False)
                    )
                    (lora_embedding_A): ParameterDict()
                    (lora_embedding_B): ParameterDict()
                  )
                  (1): Dropout(p=0.0, inplace=False)
                )
              )
              (norm2): LayerNorm((1280,), eps=1e-05, elementwise_affine=True)
              (attn2): Attention(
                (to_q): lora.Linear(
                  (base_layer): Linear(in_features=1280, out_features=1280, bias=False)
                  (lora_dropout): ModuleDict(
                    (default_0): Identity()
                  )
                  (lora_A): ModuleDict(
                    (default_0): Linear(in_features=1280, out_features=64, bias=False)
                  )
                  (lora_B): ModuleDict(
                    (default_0): Linear(in_features=64, out_features=1280, bias=False)
                  )
                  (lora_embedding_A): ParameterDict()
                  (lora_embedding_B): ParameterDict()
                )
                (to_k): lora.Linear(
                  (base_layer): Linear(in_features=768, out_features=1280, bias=False)
                  (lora_dropout): ModuleDict(
                    (default_0): Identity()
                  )
                  (lora_A): ModuleDict(
                    (default_0): Linear(in_features=768, out_features=64, bias=False)
                  )
                  (lora_B): ModuleDict(
                    (default_0): Linear(in_features=64, out_features=1280, bias=False)
                  )
                  (lora_embedding_A): ParameterDict()
                  (lora_embedding_B): ParameterDict()
                )
                (to_v): lora.Linear(
                  (base_layer): Linear(in_features=768, out_features=1280, bias=False)
                  (lora_dropout): ModuleDict(
                    (default_0): Identity()
                  )
                  (lora_A): ModuleDict(
                    (default_0): Linear(in_features=768, out_features=64, bias=False)
                  )
                  (lora_B): ModuleDict(
                    (default_0): Linear(in_features=64, out_features=1280, bias=False)
                  )
                  (lora_embedding_A): ParameterDict()
                  (lora_embedding_B): ParameterDict()
                )
                (to_out): ModuleList(
                  (0): lora.Linear(
                    (base_layer): Linear(in_features=1280, out_features=1280, bias=True)
                    (lora_dropout): ModuleDict(
                      (default_0): Identity()
                    )
                    (lora_A): ModuleDict(
                      (default_0): Linear(in_features=1280, out_features=64, bias=False)
                    )
                    (lora_B): ModuleDict(
                      (default_0): Linear(in_features=64, out_features=1280, bias=False)
                    )
                    (lora_embedding_A): ParameterDict()
                    (lora_embedding_B): ParameterDict()
                  )
                  (1): Dropout(p=0.0, inplace=False)
                )
              )
              (norm3): LayerNorm((1280,), eps=1e-05, elementwise_affine=True)
              (ff): FeedForward(
                (net): ModuleList(
                  (0): GEGLU(
                    (proj): lora.Linear(
                      (base_layer): Linear(in_features=1280, out_features=10240, bias=True)
                      (lora_dropout): ModuleDict(
                        (default_0): Identity()
                      )
                      (lora_A): ModuleDict(
                        (default_0): Linear(in_features=1280, out_features=64, bias=False)
                      )
                      (lora_B): ModuleDict(
                        (default_0): Linear(in_features=64, out_features=10240, bias=False)
                      )
                      (lora_embedding_A): ParameterDict()
                      (lora_embedding_B): ParameterDict()
                    )
                  )
                  (1): Dropout(p=0.0, inplace=False)
                  (2): lora.Linear(
                    (base_layer): Linear(in_features=5120, out_features=1280, bias=True)
                    (lora_dropout): ModuleDict(
                      (default_0): Identity()
                    )
                    (lora_A): ModuleDict(
                      (default_0): Linear(in_features=5120, out_features=64, bias=False)
                    )
                    (lora_B): ModuleDict(
                      (default_0): Linear(in_features=64, out_features=1280, bias=False)
                    )
                    (lora_embedding_A): ParameterDict()
                    (lora_embedding_B): ParameterDict()
                  )
                )
              )
            )
          )
          (proj_out): lora.Conv2d(
            (base_layer): Conv2d(1280, 1280, kernel_size=(1, 1), stride=(1, 1))
            (lora_dropout): ModuleDict(
              (default_0): Identity()
            )
            (lora_A): ModuleDict(
              (default_0): Conv2d(1280, 64, kernel_size=(1, 1), stride=(1, 1), bias=False)
            )
            (lora_B): ModuleDict(
              (default_0): Conv2d(64, 1280, kernel_size=(1, 1), stride=(1, 1), bias=False)
            )
            (lora_embedding_A): ParameterDict()
            (lora_embedding_B): ParameterDict()
          )
        )
      )
      (resnets): ModuleList(
        (0): ResnetBlock2D(
          (norm1): GroupNorm(32, 640, eps=1e-05, affine=True)
          (conv1): lora.Conv2d(
            (base_layer): Conv2d(640, 1280, kernel_size=(3, 3), stride=(1, 1), padding=(1, 1))
            (lora_dropout): ModuleDict(
              (default_0): Identity()
            )
            (lora_A): ModuleDict(
              (default_0): Conv2d(640, 64, kernel_size=(3, 3), stride=(1, 1), padding=(1, 1), bias=False)
            )
            (lora_B): ModuleDict(
              (default_0): Conv2d(64, 1280, kernel_size=(1, 1), stride=(1, 1), bias=False)
            )
            (lora_embedding_A): ParameterDict()
            (lora_embedding_B): ParameterDict()
          )
          (time_emb_proj): lora.Linear(
            (base_layer): Linear(in_features=1280, out_features=1280, bias=True)
            (lora_dropout): ModuleDict(
              (default_0): Identity()
            )
            (lora_A): ModuleDict(
              (default_0): Linear(in_features=1280, out_features=64, bias=False)
            )
            (lora_B): ModuleDict(
              (default_0): Linear(in_features=64, out_features=1280, bias=False)
            )
            (lora_embedding_A): ParameterDict()
            (lora_embedding_B): ParameterDict()
          )
          (norm2): GroupNorm(32, 1280, eps=1e-05, affine=True)
          (dropout): Dropout(p=0.0, inplace=False)
          (conv2): lora.Conv2d(
            (base_layer): Conv2d(1280, 1280, kernel_size=(3, 3), stride=(1, 1), padding=(1, 1))
            (lora_dropout): ModuleDict(
              (default_0): Identity()
            )
            (lora_A): ModuleDict(
              (default_0): Conv2d(1280, 64, kernel_size=(3, 3), stride=(1, 1), padding=(1, 1), bias=False)
            )
            (lora_B): ModuleDict(
              (default_0): Conv2d(64, 1280, kernel_size=(1, 1), stride=(1, 1), bias=False)
            )
            (lora_embedding_A): ParameterDict()
            (lora_embedding_B): ParameterDict()
          )
          (nonlinearity): SiLU()
          (conv_shortcut): lora.Conv2d(
            (base_layer): Conv2d(640, 1280, kernel_size=(1, 1), stride=(1, 1))
            (lora_dropout): ModuleDict(
              (default_0): Identity()
            )
            (lora_A): ModuleDict(
              (default_0): Conv2d(640, 64, kernel_size=(1, 1), stride=(1, 1), bias=False)
            )
            (lora_B): ModuleDict(
              (default_0): Conv2d(64, 1280, kernel_size=(1, 1), stride=(1, 1), bias=False)
            )
            (lora_embedding_A): ParameterDict()
            (lora_embedding_B): ParameterDict()
          )
        )
        (1): ResnetBlock2D(
          (norm1): GroupNorm(32, 1280, eps=1e-05, affine=True)
          (conv1): lora.Conv2d(
            (base_layer): Conv2d(1280, 1280, kernel_size=(3, 3), stride=(1, 1), padding=(1, 1))
            (lora_dropout): ModuleDict(
              (default_0): Identity()
            )
            (lora_A): ModuleDict(
              (default_0): Conv2d(1280, 64, kernel_size=(3, 3), stride=(1, 1), padding=(1, 1), bias=False)
            )
            (lora_B): ModuleDict(
              (default_0): Conv2d(64, 1280, kernel_size=(1, 1), stride=(1, 1), bias=False)
            )
            (lora_embedding_A): ParameterDict()
            (lora_embedding_B): ParameterDict()
          )
          (time_emb_proj): lora.Linear(
            (base_layer): Linear(in_features=1280, out_features=1280, bias=True)
            (lora_dropout): ModuleDict(
              (default_0): Identity()
            )
            (lora_A): ModuleDict(
              (default_0): Linear(in_features=1280, out_features=64, bias=False)
            )
            (lora_B): ModuleDict(
              (default_0): Linear(in_features=64, out_features=1280, bias=False)
            )
            (lora_embedding_A): ParameterDict()
            (lora_embedding_B): ParameterDict()
          )
          (norm2): GroupNorm(32, 1280, eps=1e-05, affine=True)
          (dropout): Dropout(p=0.0, inplace=False)
          (conv2): lora.Conv2d(
            (base_layer): Conv2d(1280, 1280, kernel_size=(3, 3), stride=(1, 1), padding=(1, 1))
            (lora_dropout): ModuleDict(
              (default_0): Identity()
            )
            (lora_A): ModuleDict(
              (default_0): Conv2d(1280, 64, kernel_size=(3, 3), stride=(1, 1), padding=(1, 1), bias=False)
            )
            (lora_B): ModuleDict(
              (default_0): Conv2d(64, 1280, kernel_size=(1, 1), stride=(1, 1), bias=False)
            )
            (lora_embedding_A): ParameterDict()
            (lora_embedding_B): ParameterDict()
          )
          (nonlinearity): SiLU()
        )
      )
      (downsamplers): ModuleList(
        (0): Downsample2D(
          (conv): lora.Conv2d(
            (base_layer): Conv2d(1280, 1280, kernel_size=(3, 3), stride=(2, 2), padding=(1, 1))
            (lora_dropout): ModuleDict(
              (default_0): Identity()
            )
            (lora_A): ModuleDict(
              (default_0): Conv2d(1280, 64, kernel_size=(3, 3), stride=(2, 2), padding=(1, 1), bias=False)
            )
            (lora_B): ModuleDict(
              (default_0): Conv2d(64, 1280, kernel_size=(1, 1), stride=(1, 1), bias=False)
            )
            (lora_embedding_A): ParameterDict()
            (lora_embedding_B): ParameterDict()
          )
        )
      )
    )
    (3): DownBlock2D(
      (resnets): ModuleList(
        (0-1): 2 x ResnetBlock2D(
          (norm1): GroupNorm(32, 1280, eps=1e-05, affine=True)
          (conv1): lora.Conv2d(
            (base_layer): Conv2d(1280, 1280, kernel_size=(3, 3), stride=(1, 1), padding=(1, 1))
            (lora_dropout): ModuleDict(
              (default_0): Identity()
            )
            (lora_A): ModuleDict(
              (default_0): Conv2d(1280, 64, kernel_size=(3, 3), stride=(1, 1), padding=(1, 1), bias=False)
            )
            (lora_B): ModuleDict(
              (default_0): Conv2d(64, 1280, kernel_size=(1, 1), stride=(1, 1), bias=False)
            )
            (lora_embedding_A): ParameterDict()
            (lora_embedding_B): ParameterDict()
          )
          (time_emb_proj): lora.Linear(
            (base_layer): Linear(in_features=1280, out_features=1280, bias=True)
            (lora_dropout): ModuleDict(
              (default_0): Identity()
            )
            (lora_A): ModuleDict(
              (default_0): Linear(in_features=1280, out_features=64, bias=False)
            )
            (lora_B): ModuleDict(
              (default_0): Linear(in_features=64, out_features=1280, bias=False)
            )
            (lora_embedding_A): ParameterDict()
            (lora_embedding_B): ParameterDict()
          )
          (norm2): GroupNorm(32, 1280, eps=1e-05, affine=True)
          (dropout): Dropout(p=0.0, inplace=False)
          (conv2): lora.Conv2d(
            (base_layer): Conv2d(1280, 1280, kernel_size=(3, 3), stride=(1, 1), padding=(1, 1))
            (lora_dropout): ModuleDict(
              (default_0): Identity()
            )
            (lora_A): ModuleDict(
              (default_0): Conv2d(1280, 64, kernel_size=(3, 3), stride=(1, 1), padding=(1, 1), bias=False)
            )
            (lora_B): ModuleDict(
              (default_0): Conv2d(64, 1280, kernel_size=(1, 1), stride=(1, 1), bias=False)
            )
            (lora_embedding_A): ParameterDict()
            (lora_embedding_B): ParameterDict()
          )
          (nonlinearity): SiLU()
        )
      )
    )
  )
  (up_blocks): ModuleList(
    (0): UpBlock2D(
      (resnets): ModuleList(
        (0-2): 3 x ResnetBlock2D(
          (norm1): GroupNorm(32, 2560, eps=1e-05, affine=True)
          (conv1): lora.Conv2d(
            (base_layer): Conv2d(2560, 1280, kernel_size=(3, 3), stride=(1, 1), padding=(1, 1))
            (lora_dropout): ModuleDict(
              (default_0): Identity()
            )
            (lora_A): ModuleDict(
              (default_0): Conv2d(2560, 64, kernel_size=(3, 3), stride=(1, 1), padding=(1, 1), bias=False)
            )
            (lora_B): ModuleDict(
              (default_0): Conv2d(64, 1280, kernel_size=(1, 1), stride=(1, 1), bias=False)
            )
            (lora_embedding_A): ParameterDict()
            (lora_embedding_B): ParameterDict()
          )
          (time_emb_proj): lora.Linear(
            (base_layer): Linear(in_features=1280, out_features=1280, bias=True)
            (lora_dropout): ModuleDict(
              (default_0): Identity()
            )
            (lora_A): ModuleDict(
              (default_0): Linear(in_features=1280, out_features=64, bias=False)
            )
            (lora_B): ModuleDict(
              (default_0): Linear(in_features=64, out_features=1280, bias=False)
            )
            (lora_embedding_A): ParameterDict()
            (lora_embedding_B): ParameterDict()
          )
          (norm2): GroupNorm(32, 1280, eps=1e-05, affine=True)
          (dropout): Dropout(p=0.0, inplace=False)
          (conv2): lora.Conv2d(
            (base_layer): Conv2d(1280, 1280, kernel_size=(3, 3), stride=(1, 1), padding=(1, 1))
            (lora_dropout): ModuleDict(
              (default_0): Identity()
            )
            (lora_A): ModuleDict(
              (default_0): Conv2d(1280, 64, kernel_size=(3, 3), stride=(1, 1), padding=(1, 1), bias=False)
            )
            (lora_B): ModuleDict(
              (default_0): Conv2d(64, 1280, kernel_size=(1, 1), stride=(1, 1), bias=False)
            )
            (lora_embedding_A): ParameterDict()
            (lora_embedding_B): ParameterDict()
          )
          (nonlinearity): SiLU()
          (conv_shortcut): lora.Conv2d(
            (base_layer): Conv2d(2560, 1280, kernel_size=(1, 1), stride=(1, 1))
            (lora_dropout): ModuleDict(
              (default_0): Identity()
            )
            (lora_A): ModuleDict(
              (default_0): Conv2d(2560, 64, kernel_size=(1, 1), stride=(1, 1), bias=False)
            )
            (lora_B): ModuleDict(
              (default_0): Conv2d(64, 1280, kernel_size=(1, 1), stride=(1, 1), bias=False)
            )
            (lora_embedding_A): ParameterDict()
            (lora_embedding_B): ParameterDict()
          )
        )
      )
      (upsamplers): ModuleList(
        (0): Upsample2D(
          (conv): lora.Conv2d(
            (base_layer): Conv2d(1280, 1280, kernel_size=(3, 3), stride=(1, 1), padding=(1, 1))
            (lora_dropout): ModuleDict(
              (default_0): Identity()
            )
            (lora_A): ModuleDict(
              (default_0): Conv2d(1280, 64, kernel_size=(3, 3), stride=(1, 1), padding=(1, 1), bias=False)
            )
            (lora_B): ModuleDict(
              (default_0): Conv2d(64, 1280, kernel_size=(1, 1), stride=(1, 1), bias=False)
            )
            (lora_embedding_A): ParameterDict()
            (lora_embedding_B): ParameterDict()
          )
        )
      )
    )
    (1): CrossAttnUpBlock2D(
      (attentions): ModuleList(
        (0-2): 3 x Transformer2DModel(
          (norm): GroupNorm(32, 1280, eps=1e-06, affine=True)
          (proj_in): lora.Conv2d(
            (base_layer): Conv2d(1280, 1280, kernel_size=(1, 1), stride=(1, 1))
            (lora_dropout): ModuleDict(
              (default_0): Identity()
            )
            (lora_A): ModuleDict(
              (default_0): Conv2d(1280, 64, kernel_size=(1, 1), stride=(1, 1), bias=False)
            )
            (lora_B): ModuleDict(
              (default_0): Conv2d(64, 1280, kernel_size=(1, 1), stride=(1, 1), bias=False)
            )
            (lora_embedding_A): ParameterDict()
            (lora_embedding_B): ParameterDict()
          )
          (transformer_blocks): ModuleList(
            (0): BasicTransformerBlock(
              (norm1): LayerNorm((1280,), eps=1e-05, elementwise_affine=True)
              (attn1): Attention(
                (to_q): lora.Linear(
                  (base_layer): Linear(in_features=1280, out_features=1280, bias=False)
                  (lora_dropout): ModuleDict(
                    (default_0): Identity()
                  )
                  (lora_A): ModuleDict(
                    (default_0): Linear(in_features=1280, out_features=64, bias=False)
                  )
                  (lora_B): ModuleDict(
                    (default_0): Linear(in_features=64, out_features=1280, bias=False)
                  )
                  (lora_embedding_A): ParameterDict()
                  (lora_embedding_B): ParameterDict()
                )
                (to_k): lora.Linear(
                  (base_layer): Linear(in_features=1280, out_features=1280, bias=False)
                  (lora_dropout): ModuleDict(
                    (default_0): Identity()
                  )
                  (lora_A): ModuleDict(
                    (default_0): Linear(in_features=1280, out_features=64, bias=False)
                  )
                  (lora_B): ModuleDict(
                    (default_0): Linear(in_features=64, out_features=1280, bias=False)
                  )
                  (lora_embedding_A): ParameterDict()
                  (lora_embedding_B): ParameterDict()
                )
                (to_v): lora.Linear(
                  (base_layer): Linear(in_features=1280, out_features=1280, bias=False)
                  (lora_dropout): ModuleDict(
                    (default_0): Identity()
                  )
                  (lora_A): ModuleDict(
                    (default_0): Linear(in_features=1280, out_features=64, bias=False)
                  )
                  (lora_B): ModuleDict(
                    (default_0): Linear(in_features=64, out_features=1280, bias=False)
                  )
                  (lora_embedding_A): ParameterDict()
                  (lora_embedding_B): ParameterDict()
                )
                (to_out): ModuleList(
                  (0): lora.Linear(
                    (base_layer): Linear(in_features=1280, out_features=1280, bias=True)
                    (lora_dropout): ModuleDict(
                      (default_0): Identity()
                    )
                    (lora_A): ModuleDict(
                      (default_0): Linear(in_features=1280, out_features=64, bias=False)
                    )
                    (lora_B): ModuleDict(
                      (default_0): Linear(in_features=64, out_features=1280, bias=False)
                    )
                    (lora_embedding_A): ParameterDict()
                    (lora_embedding_B): ParameterDict()
                  )
                  (1): Dropout(p=0.0, inplace=False)
                )
              )
              (norm2): LayerNorm((1280,), eps=1e-05, elementwise_affine=True)
              (attn2): Attention(
                (to_q): lora.Linear(
                  (base_layer): Linear(in_features=1280, out_features=1280, bias=False)
                  (lora_dropout): ModuleDict(
                    (default_0): Identity()
                  )
                  (lora_A): ModuleDict(
                    (default_0): Linear(in_features=1280, out_features=64, bias=False)
                  )
                  (lora_B): ModuleDict(
                    (default_0): Linear(in_features=64, out_features=1280, bias=False)
                  )
                  (lora_embedding_A): ParameterDict()
                  (lora_embedding_B): ParameterDict()
                )
                (to_k): lora.Linear(
                  (base_layer): Linear(in_features=768, out_features=1280, bias=False)
                  (lora_dropout): ModuleDict(
                    (default_0): Identity()
                  )
                  (lora_A): ModuleDict(
                    (default_0): Linear(in_features=768, out_features=64, bias=False)
                  )
                  (lora_B): ModuleDict(
                    (default_0): Linear(in_features=64, out_features=1280, bias=False)
                  )
                  (lora_embedding_A): ParameterDict()
                  (lora_embedding_B): ParameterDict()
                )
                (to_v): lora.Linear(
                  (base_layer): Linear(in_features=768, out_features=1280, bias=False)
                  (lora_dropout): ModuleDict(
                    (default_0): Identity()
                  )
                  (lora_A): ModuleDict(
                    (default_0): Linear(in_features=768, out_features=64, bias=False)
                  )
                  (lora_B): ModuleDict(
                    (default_0): Linear(in_features=64, out_features=1280, bias=False)
                  )
                  (lora_embedding_A): ParameterDict()
                  (lora_embedding_B): ParameterDict()
                )
                (to_out): ModuleList(
                  (0): lora.Linear(
                    (base_layer): Linear(in_features=1280, out_features=1280, bias=True)
                    (lora_dropout): ModuleDict(
                      (default_0): Identity()
                    )
                    (lora_A): ModuleDict(
                      (default_0): Linear(in_features=1280, out_features=64, bias=False)
                    )
                    (lora_B): ModuleDict(
                      (default_0): Linear(in_features=64, out_features=1280, bias=False)
                    )
                    (lora_embedding_A): ParameterDict()
                    (lora_embedding_B): ParameterDict()
                  )
                  (1): Dropout(p=0.0, inplace=False)
                )
              )
              (norm3): LayerNorm((1280,), eps=1e-05, elementwise_affine=True)
              (ff): FeedForward(
                (net): ModuleList(
                  (0): GEGLU(
                    (proj): lora.Linear(
                      (base_layer): Linear(in_features=1280, out_features=10240, bias=True)
                      (lora_dropout): ModuleDict(
                        (default_0): Identity()
                      )
                      (lora_A): ModuleDict(
                        (default_0): Linear(in_features=1280, out_features=64, bias=False)
                      )
                      (lora_B): ModuleDict(
                        (default_0): Linear(in_features=64, out_features=10240, bias=False)
                      )
                      (lora_embedding_A): ParameterDict()
                      (lora_embedding_B): ParameterDict()
                    )
                  )
                  (1): Dropout(p=0.0, inplace=False)
                  (2): lora.Linear(
                    (base_layer): Linear(in_features=5120, out_features=1280, bias=True)
                    (lora_dropout): ModuleDict(
                      (default_0): Identity()
                    )
                    (lora_A): ModuleDict(
                      (default_0): Linear(in_features=5120, out_features=64, bias=False)
                    )
                    (lora_B): ModuleDict(
                      (default_0): Linear(in_features=64, out_features=1280, bias=False)
                    )
                    (lora_embedding_A): ParameterDict()
                    (lora_embedding_B): ParameterDict()
                  )
                )
              )
            )
          )
          (proj_out): lora.Conv2d(
            (base_layer): Conv2d(1280, 1280, kernel_size=(1, 1), stride=(1, 1))
            (lora_dropout): ModuleDict(
              (default_0): Identity()
            )
            (lora_A): ModuleDict(
              (default_0): Conv2d(1280, 64, kernel_size=(1, 1), stride=(1, 1), bias=False)
            )
            (lora_B): ModuleDict(
              (default_0): Conv2d(64, 1280, kernel_size=(1, 1), stride=(1, 1), bias=False)
            )
            (lora_embedding_A): ParameterDict()
            (lora_embedding_B): ParameterDict()
          )
        )
      )
      (resnets): ModuleList(
        (0-1): 2 x ResnetBlock2D(
          (norm1): GroupNorm(32, 2560, eps=1e-05, affine=True)
          (conv1): lora.Conv2d(
            (base_layer): Conv2d(2560, 1280, kernel_size=(3, 3), stride=(1, 1), padding=(1, 1))
            (lora_dropout): ModuleDict(
              (default_0): Identity()
            )
            (lora_A): ModuleDict(
              (default_0): Conv2d(2560, 64, kernel_size=(3, 3), stride=(1, 1), padding=(1, 1), bias=False)
            )
            (lora_B): ModuleDict(
              (default_0): Conv2d(64, 1280, kernel_size=(1, 1), stride=(1, 1), bias=False)
            )
            (lora_embedding_A): ParameterDict()
            (lora_embedding_B): ParameterDict()
          )
          (time_emb_proj): lora.Linear(
            (base_layer): Linear(in_features=1280, out_features=1280, bias=True)
            (lora_dropout): ModuleDict(
              (default_0): Identity()
            )
            (lora_A): ModuleDict(
              (default_0): Linear(in_features=1280, out_features=64, bias=False)
            )
            (lora_B): ModuleDict(
              (default_0): Linear(in_features=64, out_features=1280, bias=False)
            )
            (lora_embedding_A): ParameterDict()
            (lora_embedding_B): ParameterDict()
          )
          (norm2): GroupNorm(32, 1280, eps=1e-05, affine=True)
          (dropout): Dropout(p=0.0, inplace=False)
          (conv2): lora.Conv2d(
            (base_layer): Conv2d(1280, 1280, kernel_size=(3, 3), stride=(1, 1), padding=(1, 1))
            (lora_dropout): ModuleDict(
              (default_0): Identity()
            )
            (lora_A): ModuleDict(
              (default_0): Conv2d(1280, 64, kernel_size=(3, 3), stride=(1, 1), padding=(1, 1), bias=False)
            )
            (lora_B): ModuleDict(
              (default_0): Conv2d(64, 1280, kernel_size=(1, 1), stride=(1, 1), bias=False)
            )
            (lora_embedding_A): ParameterDict()
            (lora_embedding_B): ParameterDict()
          )
          (nonlinearity): SiLU()
          (conv_shortcut): lora.Conv2d(
            (base_layer): Conv2d(2560, 1280, kernel_size=(1, 1), stride=(1, 1))
            (lora_dropout): ModuleDict(
              (default_0): Identity()
            )
            (lora_A): ModuleDict(
              (default_0): Conv2d(2560, 64, kernel_size=(1, 1), stride=(1, 1), bias=False)
            )
            (lora_B): ModuleDict(
              (default_0): Conv2d(64, 1280, kernel_size=(1, 1), stride=(1, 1), bias=False)
            )
            (lora_embedding_A): ParameterDict()
            (lora_embedding_B): ParameterDict()
          )
        )
        (2): ResnetBlock2D(
          (norm1): GroupNorm(32, 1920, eps=1e-05, affine=True)
          (conv1): lora.Conv2d(
            (base_layer): Conv2d(1920, 1280, kernel_size=(3, 3), stride=(1, 1), padding=(1, 1))
            (lora_dropout): ModuleDict(
              (default_0): Identity()
            )
            (lora_A): ModuleDict(
              (default_0): Conv2d(1920, 64, kernel_size=(3, 3), stride=(1, 1), padding=(1, 1), bias=False)
            )
            (lora_B): ModuleDict(
              (default_0): Conv2d(64, 1280, kernel_size=(1, 1), stride=(1, 1), bias=False)
            )
            (lora_embedding_A): ParameterDict()
            (lora_embedding_B): ParameterDict()
          )
          (time_emb_proj): lora.Linear(
            (base_layer): Linear(in_features=1280, out_features=1280, bias=True)
            (lora_dropout): ModuleDict(
              (default_0): Identity()
            )
            (lora_A): ModuleDict(
              (default_0): Linear(in_features=1280, out_features=64, bias=False)
            )
            (lora_B): ModuleDict(
              (default_0): Linear(in_features=64, out_features=1280, bias=False)
            )
            (lora_embedding_A): ParameterDict()
            (lora_embedding_B): ParameterDict()
          )
          (norm2): GroupNorm(32, 1280, eps=1e-05, affine=True)
          (dropout): Dropout(p=0.0, inplace=False)
          (conv2): lora.Conv2d(
            (base_layer): Conv2d(1280, 1280, kernel_size=(3, 3), stride=(1, 1), padding=(1, 1))
            (lora_dropout): ModuleDict(
              (default_0): Identity()
            )
            (lora_A): ModuleDict(
              (default_0): Conv2d(1280, 64, kernel_size=(3, 3), stride=(1, 1), padding=(1, 1), bias=False)
            )
            (lora_B): ModuleDict(
              (default_0): Conv2d(64, 1280, kernel_size=(1, 1), stride=(1, 1), bias=False)
            )
            (lora_embedding_A): ParameterDict()
            (lora_embedding_B): ParameterDict()
          )
          (nonlinearity): SiLU()
          (conv_shortcut): lora.Conv2d(
            (base_layer): Conv2d(1920, 1280, kernel_size=(1, 1), stride=(1, 1))
            (lora_dropout): ModuleDict(
              (default_0): Identity()
            )
            (lora_A): ModuleDict(
              (default_0): Conv2d(1920, 64, kernel_size=(1, 1), stride=(1, 1), bias=False)
            )
            (lora_B): ModuleDict(
              (default_0): Conv2d(64, 1280, kernel_size=(1, 1), stride=(1, 1), bias=False)
            )
            (lora_embedding_A): ParameterDict()
            (lora_embedding_B): ParameterDict()
          )
        )
      )
      (upsamplers): ModuleList(
        (0): Upsample2D(
          (conv): lora.Conv2d(
            (base_layer): Conv2d(1280, 1280, kernel_size=(3, 3), stride=(1, 1), padding=(1, 1))
            (lora_dropout): ModuleDict(
              (default_0): Identity()
            )
            (lora_A): ModuleDict(
              (default_0): Conv2d(1280, 64, kernel_size=(3, 3), stride=(1, 1), padding=(1, 1), bias=False)
            )
            (lora_B): ModuleDict(
              (default_0): Conv2d(64, 1280, kernel_size=(1, 1), stride=(1, 1), bias=False)
            )
            (lora_embedding_A): ParameterDict()
            (lora_embedding_B): ParameterDict()
          )
        )
      )
    )
    (2): CrossAttnUpBlock2D(
      (attentions): ModuleList(
        (0-2): 3 x Transformer2DModel(
          (norm): GroupNorm(32, 640, eps=1e-06, affine=True)
          (proj_in): lora.Conv2d(
            (base_layer): Conv2d(640, 640, kernel_size=(1, 1), stride=(1, 1))
            (lora_dropout): ModuleDict(
              (default_0): Identity()
            )
            (lora_A): ModuleDict(
              (default_0): Conv2d(640, 64, kernel_size=(1, 1), stride=(1, 1), bias=False)
            )
            (lora_B): ModuleDict(
              (default_0): Conv2d(64, 640, kernel_size=(1, 1), stride=(1, 1), bias=False)
            )
            (lora_embedding_A): ParameterDict()
            (lora_embedding_B): ParameterDict()
          )
          (transformer_blocks): ModuleList(
            (0): BasicTransformerBlock(
              (norm1): LayerNorm((640,), eps=1e-05, elementwise_affine=True)
              (attn1): Attention(
                (to_q): lora.Linear(
                  (base_layer): Linear(in_features=640, out_features=640, bias=False)
                  (lora_dropout): ModuleDict(
                    (default_0): Identity()
                  )
                  (lora_A): ModuleDict(
                    (default_0): Linear(in_features=640, out_features=64, bias=False)
                  )
                  (lora_B): ModuleDict(
                    (default_0): Linear(in_features=64, out_features=640, bias=False)
                  )
                  (lora_embedding_A): ParameterDict()
                  (lora_embedding_B): ParameterDict()
                )
                (to_k): lora.Linear(
                  (base_layer): Linear(in_features=640, out_features=640, bias=False)
                  (lora_dropout): ModuleDict(
                    (default_0): Identity()
                  )
                  (lora_A): ModuleDict(
                    (default_0): Linear(in_features=640, out_features=64, bias=False)
                  )
                  (lora_B): ModuleDict(
                    (default_0): Linear(in_features=64, out_features=640, bias=False)
                  )
                  (lora_embedding_A): ParameterDict()
                  (lora_embedding_B): ParameterDict()
                )
                (to_v): lora.Linear(
                  (base_layer): Linear(in_features=640, out_features=640, bias=False)
                  (lora_dropout): ModuleDict(
                    (default_0): Identity()
                  )
                  (lora_A): ModuleDict(
                    (default_0): Linear(in_features=640, out_features=64, bias=False)
                  )
                  (lora_B): ModuleDict(
                    (default_0): Linear(in_features=64, out_features=640, bias=False)
                  )
                  (lora_embedding_A): ParameterDict()
                  (lora_embedding_B): ParameterDict()
                )
                (to_out): ModuleList(
                  (0): lora.Linear(
                    (base_layer): Linear(in_features=640, out_features=640, bias=True)
                    (lora_dropout): ModuleDict(
                      (default_0): Identity()
                    )
                    (lora_A): ModuleDict(
                      (default_0): Linear(in_features=640, out_features=64, bias=False)
                    )
                    (lora_B): ModuleDict(
                      (default_0): Linear(in_features=64, out_features=640, bias=False)
                    )
                    (lora_embedding_A): ParameterDict()
                    (lora_embedding_B): ParameterDict()
                  )
                  (1): Dropout(p=0.0, inplace=False)
                )
              )
              (norm2): LayerNorm((640,), eps=1e-05, elementwise_affine=True)
              (attn2): Attention(
                (to_q): lora.Linear(
                  (base_layer): Linear(in_features=640, out_features=640, bias=False)
                  (lora_dropout): ModuleDict(
                    (default_0): Identity()
                  )
                  (lora_A): ModuleDict(
                    (default_0): Linear(in_features=640, out_features=64, bias=False)
                  )
                  (lora_B): ModuleDict(
                    (default_0): Linear(in_features=64, out_features=640, bias=False)
                  )
                  (lora_embedding_A): ParameterDict()
                  (lora_embedding_B): ParameterDict()
                )
                (to_k): lora.Linear(
                  (base_layer): Linear(in_features=768, out_features=640, bias=False)
                  (lora_dropout): ModuleDict(
                    (default_0): Identity()
                  )
                  (lora_A): ModuleDict(
                    (default_0): Linear(in_features=768, out_features=64, bias=False)
                  )
                  (lora_B): ModuleDict(
                    (default_0): Linear(in_features=64, out_features=640, bias=False)
                  )
                  (lora_embedding_A): ParameterDict()
                  (lora_embedding_B): ParameterDict()
                )
                (to_v): lora.Linear(
                  (base_layer): Linear(in_features=768, out_features=640, bias=False)
                  (lora_dropout): ModuleDict(
                    (default_0): Identity()
                  )
                  (lora_A): ModuleDict(
                    (default_0): Linear(in_features=768, out_features=64, bias=False)
                  )
                  (lora_B): ModuleDict(
                    (default_0): Linear(in_features=64, out_features=640, bias=False)
                  )
                  (lora_embedding_A): ParameterDict()
                  (lora_embedding_B): ParameterDict()
                )
                (to_out): ModuleList(
                  (0): lora.Linear(
                    (base_layer): Linear(in_features=640, out_features=640, bias=True)
                    (lora_dropout): ModuleDict(
                      (default_0): Identity()
                    )
                    (lora_A): ModuleDict(
                      (default_0): Linear(in_features=640, out_features=64, bias=False)
                    )
                    (lora_B): ModuleDict(
                      (default_0): Linear(in_features=64, out_features=640, bias=False)
                    )
                    (lora_embedding_A): ParameterDict()
                    (lora_embedding_B): ParameterDict()
                  )
                  (1): Dropout(p=0.0, inplace=False)
                )
              )
              (norm3): LayerNorm((640,), eps=1e-05, elementwise_affine=True)
              (ff): FeedForward(
                (net): ModuleList(
                  (0): GEGLU(
                    (proj): lora.Linear(
                      (base_layer): Linear(in_features=640, out_features=5120, bias=True)
                      (lora_dropout): ModuleDict(
                        (default_0): Identity()
                      )
                      (lora_A): ModuleDict(
                        (default_0): Linear(in_features=640, out_features=64, bias=False)
                      )
                      (lora_B): ModuleDict(
                        (default_0): Linear(in_features=64, out_features=5120, bias=False)
                      )
                      (lora_embedding_A): ParameterDict()
                      (lora_embedding_B): ParameterDict()
                    )
                  )
                  (1): Dropout(p=0.0, inplace=False)
                  (2): lora.Linear(
                    (base_layer): Linear(in_features=2560, out_features=640, bias=True)
                    (lora_dropout): ModuleDict(
                      (default_0): Identity()
                    )
                    (lora_A): ModuleDict(
                      (default_0): Linear(in_features=2560, out_features=64, bias=False)
                    )
                    (lora_B): ModuleDict(
                      (default_0): Linear(in_features=64, out_features=640, bias=False)
                    )
                    (lora_embedding_A): ParameterDict()
                    (lora_embedding_B): ParameterDict()
                  )
                )
              )
            )
          )
          (proj_out): lora.Conv2d(
            (base_layer): Conv2d(640, 640, kernel_size=(1, 1), stride=(1, 1))
            (lora_dropout): ModuleDict(
              (default_0): Identity()
            )
            (lora_A): ModuleDict(
              (default_0): Conv2d(640, 64, kernel_size=(1, 1), stride=(1, 1), bias=False)
            )
            (lora_B): ModuleDict(
              (default_0): Conv2d(64, 640, kernel_size=(1, 1), stride=(1, 1), bias=False)
            )
            (lora_embedding_A): ParameterDict()
            (lora_embedding_B): ParameterDict()
          )
        )
      )
      (resnets): ModuleList(
        (0): ResnetBlock2D(
          (norm1): GroupNorm(32, 1920, eps=1e-05, affine=True)
          (conv1): lora.Conv2d(
            (base_layer): Conv2d(1920, 640, kernel_size=(3, 3), stride=(1, 1), padding=(1, 1))
            (lora_dropout): ModuleDict(
              (default_0): Identity()
            )
            (lora_A): ModuleDict(
              (default_0): Conv2d(1920, 64, kernel_size=(3, 3), stride=(1, 1), padding=(1, 1), bias=False)
            )
            (lora_B): ModuleDict(
              (default_0): Conv2d(64, 640, kernel_size=(1, 1), stride=(1, 1), bias=False)
            )
            (lora_embedding_A): ParameterDict()
            (lora_embedding_B): ParameterDict()
          )
          (time_emb_proj): lora.Linear(
            (base_layer): Linear(in_features=1280, out_features=640, bias=True)
            (lora_dropout): ModuleDict(
              (default_0): Identity()
            )
            (lora_A): ModuleDict(
              (default_0): Linear(in_features=1280, out_features=64, bias=False)
            )
            (lora_B): ModuleDict(
              (default_0): Linear(in_features=64, out_features=640, bias=False)
            )
            (lora_embedding_A): ParameterDict()
            (lora_embedding_B): ParameterDict()
          )
          (norm2): GroupNorm(32, 640, eps=1e-05, affine=True)
          (dropout): Dropout(p=0.0, inplace=False)
          (conv2): lora.Conv2d(
            (base_layer): Conv2d(640, 640, kernel_size=(3, 3), stride=(1, 1), padding=(1, 1))
            (lora_dropout): ModuleDict(
              (default_0): Identity()
            )
            (lora_A): ModuleDict(
              (default_0): Conv2d(640, 64, kernel_size=(3, 3), stride=(1, 1), padding=(1, 1), bias=False)
            )
            (lora_B): ModuleDict(
              (default_0): Conv2d(64, 640, kernel_size=(1, 1), stride=(1, 1), bias=False)
            )
            (lora_embedding_A): ParameterDict()
            (lora_embedding_B): ParameterDict()
          )
          (nonlinearity): SiLU()
          (conv_shortcut): lora.Conv2d(
            (base_layer): Conv2d(1920, 640, kernel_size=(1, 1), stride=(1, 1))
            (lora_dropout): ModuleDict(
              (default_0): Identity()
            )
            (lora_A): ModuleDict(
              (default_0): Conv2d(1920, 64, kernel_size=(1, 1), stride=(1, 1), bias=False)
            )
            (lora_B): ModuleDict(
              (default_0): Conv2d(64, 640, kernel_size=(1, 1), stride=(1, 1), bias=False)
            )
            (lora_embedding_A): ParameterDict()
            (lora_embedding_B): ParameterDict()
          )
        )
        (1): ResnetBlock2D(
          (norm1): GroupNorm(32, 1280, eps=1e-05, affine=True)
          (conv1): lora.Conv2d(
            (base_layer): Conv2d(1280, 640, kernel_size=(3, 3), stride=(1, 1), padding=(1, 1))
            (lora_dropout): ModuleDict(
              (default_0): Identity()
            )
            (lora_A): ModuleDict(
              (default_0): Conv2d(1280, 64, kernel_size=(3, 3), stride=(1, 1), padding=(1, 1), bias=False)
            )
            (lora_B): ModuleDict(
              (default_0): Conv2d(64, 640, kernel_size=(1, 1), stride=(1, 1), bias=False)
            )
            (lora_embedding_A): ParameterDict()
            (lora_embedding_B): ParameterDict()
          )
          (time_emb_proj): lora.Linear(
            (base_layer): Linear(in_features=1280, out_features=640, bias=True)
            (lora_dropout): ModuleDict(
              (default_0): Identity()
            )
            (lora_A): ModuleDict(
              (default_0): Linear(in_features=1280, out_features=64, bias=False)
            )
            (lora_B): ModuleDict(
              (default_0): Linear(in_features=64, out_features=640, bias=False)
            )
            (lora_embedding_A): ParameterDict()
            (lora_embedding_B): ParameterDict()
          )
          (norm2): GroupNorm(32, 640, eps=1e-05, affine=True)
          (dropout): Dropout(p=0.0, inplace=False)
          (conv2): lora.Conv2d(
            (base_layer): Conv2d(640, 640, kernel_size=(3, 3), stride=(1, 1), padding=(1, 1))
            (lora_dropout): ModuleDict(
              (default_0): Identity()
            )
            (lora_A): ModuleDict(
              (default_0): Conv2d(640, 64, kernel_size=(3, 3), stride=(1, 1), padding=(1, 1), bias=False)
            )
            (lora_B): ModuleDict(
              (default_0): Conv2d(64, 640, kernel_size=(1, 1), stride=(1, 1), bias=False)
            )
            (lora_embedding_A): ParameterDict()
            (lora_embedding_B): ParameterDict()
          )
          (nonlinearity): SiLU()
          (conv_shortcut): lora.Conv2d(
            (base_layer): Conv2d(1280, 640, kernel_size=(1, 1), stride=(1, 1))
            (lora_dropout): ModuleDict(
              (default_0): Identity()
            )
            (lora_A): ModuleDict(
              (default_0): Conv2d(1280, 64, kernel_size=(1, 1), stride=(1, 1), bias=False)
            )
            (lora_B): ModuleDict(
              (default_0): Conv2d(64, 640, kernel_size=(1, 1), stride=(1, 1), bias=False)
            )
            (lora_embedding_A): ParameterDict()
            (lora_embedding_B): ParameterDict()
          )
        )
        (2): ResnetBlock2D(
          (norm1): GroupNorm(32, 960, eps=1e-05, affine=True)
          (conv1): lora.Conv2d(
            (base_layer): Conv2d(960, 640, kernel_size=(3, 3), stride=(1, 1), padding=(1, 1))
            (lora_dropout): ModuleDict(
              (default_0): Identity()
            )
            (lora_A): ModuleDict(
              (default_0): Conv2d(960, 64, kernel_size=(3, 3), stride=(1, 1), padding=(1, 1), bias=False)
            )
            (lora_B): ModuleDict(
              (default_0): Conv2d(64, 640, kernel_size=(1, 1), stride=(1, 1), bias=False)
            )
            (lora_embedding_A): ParameterDict()
            (lora_embedding_B): ParameterDict()
          )
          (time_emb_proj): lora.Linear(
            (base_layer): Linear(in_features=1280, out_features=640, bias=True)
            (lora_dropout): ModuleDict(
              (default_0): Identity()
            )
            (lora_A): ModuleDict(
              (default_0): Linear(in_features=1280, out_features=64, bias=False)
            )
            (lora_B): ModuleDict(
              (default_0): Linear(in_features=64, out_features=640, bias=False)
            )
            (lora_embedding_A): ParameterDict()
            (lora_embedding_B): ParameterDict()
          )
          (norm2): GroupNorm(32, 640, eps=1e-05, affine=True)
          (dropout): Dropout(p=0.0, inplace=False)
          (conv2): lora.Conv2d(
            (base_layer): Conv2d(640, 640, kernel_size=(3, 3), stride=(1, 1), padding=(1, 1))
            (lora_dropout): ModuleDict(
              (default_0): Identity()
            )
            (lora_A): ModuleDict(
              (default_0): Conv2d(640, 64, kernel_size=(3, 3), stride=(1, 1), padding=(1, 1), bias=False)
            )
            (lora_B): ModuleDict(
              (default_0): Conv2d(64, 640, kernel_size=(1, 1), stride=(1, 1), bias=False)
            )
            (lora_embedding_A): ParameterDict()
            (lora_embedding_B): ParameterDict()
          )
          (nonlinearity): SiLU()
          (conv_shortcut): lora.Conv2d(
            (base_layer): Conv2d(960, 640, kernel_size=(1, 1), stride=(1, 1))
            (lora_dropout): ModuleDict(
              (default_0): Identity()
            )
            (lora_A): ModuleDict(
              (default_0): Conv2d(960, 64, kernel_size=(1, 1), stride=(1, 1), bias=False)
            )
            (lora_B): ModuleDict(
              (default_0): Conv2d(64, 640, kernel_size=(1, 1), stride=(1, 1), bias=False)
            )
            (lora_embedding_A): ParameterDict()
            (lora_embedding_B): ParameterDict()
          )
        )
      )
      (upsamplers): ModuleList(
        (0): Upsample2D(
          (conv): lora.Conv2d(
            (base_layer): Conv2d(640, 640, kernel_size=(3, 3), stride=(1, 1), padding=(1, 1))
            (lora_dropout): ModuleDict(
              (default_0): Identity()
            )
            (lora_A): ModuleDict(
              (default_0): Conv2d(640, 64, kernel_size=(3, 3), stride=(1, 1), padding=(1, 1), bias=False)
            )
            (lora_B): ModuleDict(
              (default_0): Conv2d(64, 640, kernel_size=(1, 1), stride=(1, 1), bias=False)
            )
            (lora_embedding_A): ParameterDict()
            (lora_embedding_B): ParameterDict()
          )
        )
      )
    )
    (3): CrossAttnUpBlock2D(
      (attentions): ModuleList(
        (0-2): 3 x Transformer2DModel(
          (norm): GroupNorm(32, 320, eps=1e-06, affine=True)
          (proj_in): lora.Conv2d(
            (base_layer): Conv2d(320, 320, kernel_size=(1, 1), stride=(1, 1))
            (lora_dropout): ModuleDict(
              (default_0): Identity()
            )
            (lora_A): ModuleDict(
              (default_0): Conv2d(320, 64, kernel_size=(1, 1), stride=(1, 1), bias=False)
            )
            (lora_B): ModuleDict(
              (default_0): Conv2d(64, 320, kernel_size=(1, 1), stride=(1, 1), bias=False)
            )
            (lora_embedding_A): ParameterDict()
            (lora_embedding_B): ParameterDict()
          )
          (transformer_blocks): ModuleList(
            (0): BasicTransformerBlock(
              (norm1): LayerNorm((320,), eps=1e-05, elementwise_affine=True)
              (attn1): Attention(
                (to_q): lora.Linear(
                  (base_layer): Linear(in_features=320, out_features=320, bias=False)
                  (lora_dropout): ModuleDict(
                    (default_0): Identity()
                  )
                  (lora_A): ModuleDict(
                    (default_0): Linear(in_features=320, out_features=64, bias=False)
                  )
                  (lora_B): ModuleDict(
                    (default_0): Linear(in_features=64, out_features=320, bias=False)
                  )
                  (lora_embedding_A): ParameterDict()
                  (lora_embedding_B): ParameterDict()
                )
                (to_k): lora.Linear(
                  (base_layer): Linear(in_features=320, out_features=320, bias=False)
                  (lora_dropout): ModuleDict(
                    (default_0): Identity()
                  )
                  (lora_A): ModuleDict(
                    (default_0): Linear(in_features=320, out_features=64, bias=False)
                  )
                  (lora_B): ModuleDict(
                    (default_0): Linear(in_features=64, out_features=320, bias=False)
                  )
                  (lora_embedding_A): ParameterDict()
                  (lora_embedding_B): ParameterDict()
                )
                (to_v): lora.Linear(
                  (base_layer): Linear(in_features=320, out_features=320, bias=False)
                  (lora_dropout): ModuleDict(
                    (default_0): Identity()
                  )
                  (lora_A): ModuleDict(
                    (default_0): Linear(in_features=320, out_features=64, bias=False)
                  )
                  (lora_B): ModuleDict(
                    (default_0): Linear(in_features=64, out_features=320, bias=False)
                  )
                  (lora_embedding_A): ParameterDict()
                  (lora_embedding_B): ParameterDict()
                )
                (to_out): ModuleList(
                  (0): lora.Linear(
                    (base_layer): Linear(in_features=320, out_features=320, bias=True)
                    (lora_dropout): ModuleDict(
                      (default_0): Identity()
                    )
                    (lora_A): ModuleDict(
                      (default_0): Linear(in_features=320, out_features=64, bias=False)
                    )
                    (lora_B): ModuleDict(
                      (default_0): Linear(in_features=64, out_features=320, bias=False)
                    )
                    (lora_embedding_A): ParameterDict()
                    (lora_embedding_B): ParameterDict()
                  )
                  (1): Dropout(p=0.0, inplace=False)
                )
              )
              (norm2): LayerNorm((320,), eps=1e-05, elementwise_affine=True)
              (attn2): Attention(
                (to_q): lora.Linear(
                  (base_layer): Linear(in_features=320, out_features=320, bias=False)
                  (lora_dropout): ModuleDict(
                    (default_0): Identity()
                  )
                  (lora_A): ModuleDict(
                    (default_0): Linear(in_features=320, out_features=64, bias=False)
                  )
                  (lora_B): ModuleDict(
                    (default_0): Linear(in_features=64, out_features=320, bias=False)
                  )
                  (lora_embedding_A): ParameterDict()
                  (lora_embedding_B): ParameterDict()
                )
                (to_k): lora.Linear(
                  (base_layer): Linear(in_features=768, out_features=320, bias=False)
                  (lora_dropout): ModuleDict(
                    (default_0): Identity()
                  )
                  (lora_A): ModuleDict(
                    (default_0): Linear(in_features=768, out_features=64, bias=False)
                  )
                  (lora_B): ModuleDict(
                    (default_0): Linear(in_features=64, out_features=320, bias=False)
                  )
                  (lora_embedding_A): ParameterDict()
                  (lora_embedding_B): ParameterDict()
                )
                (to_v): lora.Linear(
                  (base_layer): Linear(in_features=768, out_features=320, bias=False)
                  (lora_dropout): ModuleDict(
                    (default_0): Identity()
                  )
                  (lora_A): ModuleDict(
                    (default_0): Linear(in_features=768, out_features=64, bias=False)
                  )
                  (lora_B): ModuleDict(
                    (default_0): Linear(in_features=64, out_features=320, bias=False)
                  )
                  (lora_embedding_A): ParameterDict()
                  (lora_embedding_B): ParameterDict()
                )
                (to_out): ModuleList(
                  (0): lora.Linear(
                    (base_layer): Linear(in_features=320, out_features=320, bias=True)
                    (lora_dropout): ModuleDict(
                      (default_0): Identity()
                    )
                    (lora_A): ModuleDict(
                      (default_0): Linear(in_features=320, out_features=64, bias=False)
                    )
                    (lora_B): ModuleDict(
                      (default_0): Linear(in_features=64, out_features=320, bias=False)
                    )
                    (lora_embedding_A): ParameterDict()
                    (lora_embedding_B): ParameterDict()
                  )
                  (1): Dropout(p=0.0, inplace=False)
                )
              )
              (norm3): LayerNorm((320,), eps=1e-05, elementwise_affine=True)
              (ff): FeedForward(
                (net): ModuleList(
                  (0): GEGLU(
                    (proj): lora.Linear(
                      (base_layer): Linear(in_features=320, out_features=2560, bias=True)
                      (lora_dropout): ModuleDict(
                        (default_0): Identity()
                      )
                      (lora_A): ModuleDict(
                        (default_0): Linear(in_features=320, out_features=64, bias=False)
                      )
                      (lora_B): ModuleDict(
                        (default_0): Linear(in_features=64, out_features=2560, bias=False)
                      )
                      (lora_embedding_A): ParameterDict()
                      (lora_embedding_B): ParameterDict()
                    )
                  )
                  (1): Dropout(p=0.0, inplace=False)
                  (2): lora.Linear(
                    (base_layer): Linear(in_features=1280, out_features=320, bias=True)
                    (lora_dropout): ModuleDict(
                      (default_0): Identity()
                    )
                    (lora_A): ModuleDict(
                      (default_0): Linear(in_features=1280, out_features=64, bias=False)
                    )
                    (lora_B): ModuleDict(
                      (default_0): Linear(in_features=64, out_features=320, bias=False)
                    )
                    (lora_embedding_A): ParameterDict()
                    (lora_embedding_B): ParameterDict()
                  )
                )
              )
            )
          )
          (proj_out): lora.Conv2d(
            (base_layer): Conv2d(320, 320, kernel_size=(1, 1), stride=(1, 1))
            (lora_dropout): ModuleDict(
              (default_0): Identity()
            )
            (lora_A): ModuleDict(
              (default_0): Conv2d(320, 64, kernel_size=(1, 1), stride=(1, 1), bias=False)
            )
            (lora_B): ModuleDict(
              (default_0): Conv2d(64, 320, kernel_size=(1, 1), stride=(1, 1), bias=False)
            )
            (lora_embedding_A): ParameterDict()
            (lora_embedding_B): ParameterDict()
          )
        )
      )
      (resnets): ModuleList(
        (0): ResnetBlock2D(
          (norm1): GroupNorm(32, 960, eps=1e-05, affine=True)
          (conv1): lora.Conv2d(
            (base_layer): Conv2d(960, 320, kernel_size=(3, 3), stride=(1, 1), padding=(1, 1))
            (lora_dropout): ModuleDict(
              (default_0): Identity()
            )
            (lora_A): ModuleDict(
              (default_0): Conv2d(960, 64, kernel_size=(3, 3), stride=(1, 1), padding=(1, 1), bias=False)
            )
            (lora_B): ModuleDict(
              (default_0): Conv2d(64, 320, kernel_size=(1, 1), stride=(1, 1), bias=False)
            )
            (lora_embedding_A): ParameterDict()
            (lora_embedding_B): ParameterDict()
          )
          (time_emb_proj): lora.Linear(
            (base_layer): Linear(in_features=1280, out_features=320, bias=True)
            (lora_dropout): ModuleDict(
              (default_0): Identity()
            )
            (lora_A): ModuleDict(
              (default_0): Linear(in_features=1280, out_features=64, bias=False)
            )
            (lora_B): ModuleDict(
              (default_0): Linear(in_features=64, out_features=320, bias=False)
            )
            (lora_embedding_A): ParameterDict()
            (lora_embedding_B): ParameterDict()
          )
          (norm2): GroupNorm(32, 320, eps=1e-05, affine=True)
          (dropout): Dropout(p=0.0, inplace=False)
          (conv2): lora.Conv2d(
            (base_layer): Conv2d(320, 320, kernel_size=(3, 3), stride=(1, 1), padding=(1, 1))
            (lora_dropout): ModuleDict(
              (default_0): Identity()
            )
            (lora_A): ModuleDict(
              (default_0): Conv2d(320, 64, kernel_size=(3, 3), stride=(1, 1), padding=(1, 1), bias=False)
            )
            (lora_B): ModuleDict(
              (default_0): Conv2d(64, 320, kernel_size=(1, 1), stride=(1, 1), bias=False)
            )
            (lora_embedding_A): ParameterDict()
            (lora_embedding_B): ParameterDict()
          )
          (nonlinearity): SiLU()
          (conv_shortcut): lora.Conv2d(
            (base_layer): Conv2d(960, 320, kernel_size=(1, 1), stride=(1, 1))
            (lora_dropout): ModuleDict(
              (default_0): Identity()
            )
            (lora_A): ModuleDict(
              (default_0): Conv2d(960, 64, kernel_size=(1, 1), stride=(1, 1), bias=False)
            )
            (lora_B): ModuleDict(
              (default_0): Conv2d(64, 320, kernel_size=(1, 1), stride=(1, 1), bias=False)
            )
            (lora_embedding_A): ParameterDict()
            (lora_embedding_B): ParameterDict()
          )
        )
        (1-2): 2 x ResnetBlock2D(
          (norm1): GroupNorm(32, 640, eps=1e-05, affine=True)
          (conv1): lora.Conv2d(
            (base_layer): Conv2d(640, 320, kernel_size=(3, 3), stride=(1, 1), padding=(1, 1))
            (lora_dropout): ModuleDict(
              (default_0): Identity()
            )
            (lora_A): ModuleDict(
              (default_0): Conv2d(640, 64, kernel_size=(3, 3), stride=(1, 1), padding=(1, 1), bias=False)
            )
            (lora_B): ModuleDict(
              (default_0): Conv2d(64, 320, kernel_size=(1, 1), stride=(1, 1), bias=False)
            )
            (lora_embedding_A): ParameterDict()
            (lora_embedding_B): ParameterDict()
          )
          (time_emb_proj): lora.Linear(
            (base_layer): Linear(in_features=1280, out_features=320, bias=True)
            (lora_dropout): ModuleDict(
              (default_0): Identity()
            )
            (lora_A): ModuleDict(
              (default_0): Linear(in_features=1280, out_features=64, bias=False)
            )
            (lora_B): ModuleDict(
              (default_0): Linear(in_features=64, out_features=320, bias=False)
            )
            (lora_embedding_A): ParameterDict()
            (lora_embedding_B): ParameterDict()
          )
          (norm2): GroupNorm(32, 320, eps=1e-05, affine=True)
          (dropout): Dropout(p=0.0, inplace=False)
          (conv2): lora.Conv2d(
            (base_layer): Conv2d(320, 320, kernel_size=(3, 3), stride=(1, 1), padding=(1, 1))
            (lora_dropout): ModuleDict(
              (default_0): Identity()
            )
            (lora_A): ModuleDict(
              (default_0): Conv2d(320, 64, kernel_size=(3, 3), stride=(1, 1), padding=(1, 1), bias=False)
            )
            (lora_B): ModuleDict(
              (default_0): Conv2d(64, 320, kernel_size=(1, 1), stride=(1, 1), bias=False)
            )
            (lora_embedding_A): ParameterDict()
            (lora_embedding_B): ParameterDict()
          )
          (nonlinearity): SiLU()
          (conv_shortcut): lora.Conv2d(
            (base_layer): Conv2d(640, 320, kernel_size=(1, 1), stride=(1, 1))
            (lora_dropout): ModuleDict(
              (default_0): Identity()
            )
            (lora_A): ModuleDict(
              (default_0): Conv2d(640, 64, kernel_size=(1, 1), stride=(1, 1), bias=False)
            )
            (lora_B): ModuleDict(
              (default_0): Conv2d(64, 320, kernel_size=(1, 1), stride=(1, 1), bias=False)
            )
            (lora_embedding_A): ParameterDict()
            (lora_embedding_B): ParameterDict()
          )
        )
      )
    )
  )
  (mid_block): UNetMidBlock2DCrossAttn(
    (attentions): ModuleList(
      (0): Transformer2DModel(
        (norm): GroupNorm(32, 1280, eps=1e-06, affine=True)
        (proj_in): lora.Conv2d(
          (base_layer): Conv2d(1280, 1280, kernel_size=(1, 1), stride=(1, 1))
          (lora_dropout): ModuleDict(
            (default_0): Identity()
          )
          (lora_A): ModuleDict(
            (default_0): Conv2d(1280, 64, kernel_size=(1, 1), stride=(1, 1), bias=False)
          )
          (lora_B): ModuleDict(
            (default_0): Conv2d(64, 1280, kernel_size=(1, 1), stride=(1, 1), bias=False)
          )
          (lora_embedding_A): ParameterDict()
          (lora_embedding_B): ParameterDict()
        )
        (transformer_blocks): ModuleList(
          (0): BasicTransformerBlock(
            (norm1): LayerNorm((1280,), eps=1e-05, elementwise_affine=True)
            (attn1): Attention(
              (to_q): lora.Linear(
                (base_layer): Linear(in_features=1280, out_features=1280, bias=False)
                (lora_dropout): ModuleDict(
                  (default_0): Identity()
                )
                (lora_A): ModuleDict(
                  (default_0): Linear(in_features=1280, out_features=64, bias=False)
                )
                (lora_B): ModuleDict(
                  (default_0): Linear(in_features=64, out_features=1280, bias=False)
                )
                (lora_embedding_A): ParameterDict()
                (lora_embedding_B): ParameterDict()
              )
              (to_k): lora.Linear(
                (base_layer): Linear(in_features=1280, out_features=1280, bias=False)
                (lora_dropout): ModuleDict(
                  (default_0): Identity()
                )
                (lora_A): ModuleDict(
                  (default_0): Linear(in_features=1280, out_features=64, bias=False)
                )
                (lora_B): ModuleDict(
                  (default_0): Linear(in_features=64, out_features=1280, bias=False)
                )
                (lora_embedding_A): ParameterDict()
                (lora_embedding_B): ParameterDict()
              )
              (to_v): lora.Linear(
                (base_layer): Linear(in_features=1280, out_features=1280, bias=False)
                (lora_dropout): ModuleDict(
                  (default_0): Identity()
                )
                (lora_A): ModuleDict(
                  (default_0): Linear(in_features=1280, out_features=64, bias=False)
                )
                (lora_B): ModuleDict(
                  (default_0): Linear(in_features=64, out_features=1280, bias=False)
                )
                (lora_embedding_A): ParameterDict()
                (lora_embedding_B): ParameterDict()
              )
              (to_out): ModuleList(
                (0): lora.Linear(
                  (base_layer): Linear(in_features=1280, out_features=1280, bias=True)
                  (lora_dropout): ModuleDict(
                    (default_0): Identity()
                  )
                  (lora_A): ModuleDict(
                    (default_0): Linear(in_features=1280, out_features=64, bias=False)
                  )
                  (lora_B): ModuleDict(
                    (default_0): Linear(in_features=64, out_features=1280, bias=False)
                  )
                  (lora_embedding_A): ParameterDict()
                  (lora_embedding_B): ParameterDict()
                )
                (1): Dropout(p=0.0, inplace=False)
              )
            )
            (norm2): LayerNorm((1280,), eps=1e-05, elementwise_affine=True)
            (attn2): Attention(
              (to_q): lora.Linear(
                (base_layer): Linear(in_features=1280, out_features=1280, bias=False)
                (lora_dropout): ModuleDict(
                  (default_0): Identity()
                )
                (lora_A): ModuleDict(
                  (default_0): Linear(in_features=1280, out_features=64, bias=False)
                )
                (lora_B): ModuleDict(
                  (default_0): Linear(in_features=64, out_features=1280, bias=False)
                )
                (lora_embedding_A): ParameterDict()
                (lora_embedding_B): ParameterDict()
              )
              (to_k): lora.Linear(
                (base_layer): Linear(in_features=768, out_features=1280, bias=False)
                (lora_dropout): ModuleDict(
                  (default_0): Identity()
                )
                (lora_A): ModuleDict(
                  (default_0): Linear(in_features=768, out_features=64, bias=False)
                )
                (lora_B): ModuleDict(
                  (default_0): Linear(in_features=64, out_features=1280, bias=False)
                )
                (lora_embedding_A): ParameterDict()
                (lora_embedding_B): ParameterDict()
              )
              (to_v): lora.Linear(
                (base_layer): Linear(in_features=768, out_features=1280, bias=False)
                (lora_dropout): ModuleDict(
                  (default_0): Identity()
                )
                (lora_A): ModuleDict(
                  (default_0): Linear(in_features=768, out_features=64, bias=False)
                )
                (lora_B): ModuleDict(
                  (default_0): Linear(in_features=64, out_features=1280, bias=False)
                )
                (lora_embedding_A): ParameterDict()
                (lora_embedding_B): ParameterDict()
              )
              (to_out): ModuleList(
                (0): lora.Linear(
                  (base_layer): Linear(in_features=1280, out_features=1280, bias=True)
                  (lora_dropout): ModuleDict(
                    (default_0): Identity()
                  )
                  (lora_A): ModuleDict(
                    (default_0): Linear(in_features=1280, out_features=64, bias=False)
                  )
                  (lora_B): ModuleDict(
                    (default_0): Linear(in_features=64, out_features=1280, bias=False)
                  )
                  (lora_embedding_A): ParameterDict()
                  (lora_embedding_B): ParameterDict()
                )
                (1): Dropout(p=0.0, inplace=False)
              )
            )
            (norm3): LayerNorm((1280,), eps=1e-05, elementwise_affine=True)
            (ff): FeedForward(
              (net): ModuleList(
                (0): GEGLU(
                  (proj): lora.Linear(
                    (base_layer): Linear(in_features=1280, out_features=10240, bias=True)
                    (lora_dropout): ModuleDict(
                      (default_0): Identity()
                    )
                    (lora_A): ModuleDict(
                      (default_0): Linear(in_features=1280, out_features=64, bias=False)
                    )
                    (lora_B): ModuleDict(
                      (default_0): Linear(in_features=64, out_features=10240, bias=False)
                    )
                    (lora_embedding_A): ParameterDict()
                    (lora_embedding_B): ParameterDict()
                  )
                )
                (1): Dropout(p=0.0, inplace=False)
                (2): lora.Linear(
                  (base_layer): Linear(in_features=5120, out_features=1280, bias=True)
                  (lora_dropout): ModuleDict(
                    (default_0): Identity()
                  )
                  (lora_A): ModuleDict(
                    (default_0): Linear(in_features=5120, out_features=64, bias=False)
                  )
                  (lora_B): ModuleDict(
                    (default_0): Linear(in_features=64, out_features=1280, bias=False)
                  )
                  (lora_embedding_A): ParameterDict()
                  (lora_embedding_B): ParameterDict()
                )
              )
            )
          )
        )
        (proj_out): lora.Conv2d(
          (base_layer): Conv2d(1280, 1280, kernel_size=(1, 1), stride=(1, 1))
          (lora_dropout): ModuleDict(
            (default_0): Identity()
          )
          (lora_A): ModuleDict(
            (default_0): Conv2d(1280, 64, kernel_size=(1, 1), stride=(1, 1), bias=False)
          )
          (lora_B): ModuleDict(
            (default_0): Conv2d(64, 1280, kernel_size=(1, 1), stride=(1, 1), bias=False)
          )
          (lora_embedding_A): ParameterDict()
          (lora_embedding_B): ParameterDict()
        )
      )
    )
    (resnets): ModuleList(
      (0-1): 2 x ResnetBlock2D(
        (norm1): GroupNorm(32, 1280, eps=1e-05, affine=True)
        (conv1): lora.Conv2d(
          (base_layer): Conv2d(1280, 1280, kernel_size=(3, 3), stride=(1, 1), padding=(1, 1))
          (lora_dropout): ModuleDict(
            (default_0): Identity()
          )
          (lora_A): ModuleDict(
            (default_0): Conv2d(1280, 64, kernel_size=(3, 3), stride=(1, 1), padding=(1, 1), bias=False)
          )
          (lora_B): ModuleDict(
            (default_0): Conv2d(64, 1280, kernel_size=(1, 1), stride=(1, 1), bias=False)
          )
          (lora_embedding_A): ParameterDict()
          (lora_embedding_B): ParameterDict()
        )
        (time_emb_proj): lora.Linear(
          (base_layer): Linear(in_features=1280, out_features=1280, bias=True)
          (lora_dropout): ModuleDict(
            (default_0): Identity()
          )
          (lora_A): ModuleDict(
            (default_0): Linear(in_features=1280, out_features=64, bias=False)
          )
          (lora_B): ModuleDict(
            (default_0): Linear(in_features=64, out_features=1280, bias=False)
          )
          (lora_embedding_A): ParameterDict()
          (lora_embedding_B): ParameterDict()
        )
        (norm2): GroupNorm(32, 1280, eps=1e-05, affine=True)
        (dropout): Dropout(p=0.0, inplace=False)
        (conv2): lora.Conv2d(
          (base_layer): Conv2d(1280, 1280, kernel_size=(3, 3), stride=(1, 1), padding=(1, 1))
          (lora_dropout): ModuleDict(
            (default_0): Identity()
          )
          (lora_A): ModuleDict(
            (default_0): Conv2d(1280, 64, kernel_size=(3, 3), stride=(1, 1), padding=(1, 1), bias=False)
          )
          (lora_B): ModuleDict(
            (default_0): Conv2d(64, 1280, kernel_size=(1, 1), stride=(1, 1), bias=False)
          )
          (lora_embedding_A): ParameterDict()
          (lora_embedding_B): ParameterDict()
        )
        (nonlinearity): SiLU()
      )
    )
  )
  (conv_norm_out): GroupNorm(32, 320, eps=1e-05, affine=True)
  (conv_act): SiLU()
  (conv_out): Conv2d(320, 4, kernel_size=(3, 3), stride=(1, 1), padding=(1, 1))
)
